…
2017-12-18 00:30:40.913325: W C:\tf_jenkins\home\workspace\rel-win\M\windows\PY\36\tensorflow\core\platform\cpu_feature_guard.cc:45] The TensorFlow library wasn't compiled to use AVX2 instructions, but these are available on your machine and could speed up CPU
computations.
x_train shape: (50000, 32, 32, 3) | y_train shape: (50000, 10)
x_test shape : (10000, 32, 32, 3) | y_test shape : (10000, 10)
_________________________________________________________________
Layer (type)                 Output Shape              Param #
=================================================================
input_1 (InputLayer)         (None, 32, 32, 3)         0
_________________________________________________________________
conv2d_1 (Conv2D)            (None, 32, 32, 96)        2688
_________________________________________________________________
conv2d_2 (Conv2D)            (None, 32, 32, 96)        83040
_________________________________________________________________
conv2d_3 (Conv2D)            (None, 32, 32, 96)        83040
_________________________________________________________________
max_pooling2d_1 (MaxPooling2 (None, 15, 15, 96)        0
_________________________________________________________________
conv2d_4 (Conv2D)            (None, 15, 15, 192)       166080
_________________________________________________________________
conv2d_5 (Conv2D)            (None, 15, 15, 192)       331968
_________________________________________________________________
conv2d_6 (Conv2D)            (None, 15, 15, 192)       331968
_________________________________________________________________
max_pooling2d_2 (MaxPooling2 (None, 7, 7, 192)         0
_________________________________________________________________
conv2d_7 (Conv2D)            (None, 7, 7, 192)         331968
_________________________________________________________________
conv2d_8 (Conv2D)            (None, 7, 7, 192)         37056
_________________________________________________________________
conv2d_9 (Conv2D)            (None, 7, 7, 10)          1930
_________________________________________________________________
global_average_pooling2d_1 ( (None, 10)                0
_________________________________________________________________
activation_1 (Activation)    (None, 10)                0
=================================================================
Total params: 1,369,738
Trainable params: 1,369,738
Non-trainable params: 0
_________________________________________________________________
Train on 40000 samples, validate on 10000 samples
Epoch 1/20
40000/40000 [==============================] - 1251s - loss: 2.3026 - acc: 0.1006 - val_loss: 2.3026 - val_acc: 0.1014
Epoch 2/20
40000/40000 [==============================] - 1249s - loss: 2.3026 - acc: 0.0997 - val_loss: 2.3026 - val_acc: 0.1014
…
40000/40000 [==============================] - 1242s - loss: 2.3026 - acc: 0.0997 - val_loss: 2.3026 - val_acc: 0.1014
Epoch 19/20
40000/40000 [==============================] - 1242s - loss: 2.3026 - acc: 0.0997 - val_loss: 2.3026 - val_acc: 0.1014
Epoch 20/20
40000/40000 [==============================] - 1241s - loss: 2.3026 - acc: 0.0997 - val_loss: 2.3026 - val_acc: 0.1014
0.0001
1.0
_________________________________________________________________
Layer (type)                 Output Shape              Param #
=================================================================
input_1 (InputLayer)         (None, 32, 32, 3)         0
_________________________________________________________________
conv2d_10 (Conv2D)           (None, 32, 32, 96)        2688
_________________________________________________________________
conv2d_11 (Conv2D)           (None, 32, 32, 96)        83040
_________________________________________________________________
conv2d_12 (Conv2D)           (None, 16, 16, 96)        83040
_________________________________________________________________
conv2d_13 (Conv2D)           (None, 16, 16, 192)       166080
_________________________________________________________________
conv2d_14 (Conv2D)           (None, 16, 16, 192)       331968
_________________________________________________________________
conv2d_15 (Conv2D)           (None, 8, 8, 192)         331968
_________________________________________________________________
conv2d_16 (Conv2D)           (None, 8, 8, 192)         331968
_________________________________________________________________
conv2d_17 (Conv2D)           (None, 8, 8, 192)         37056
_________________________________________________________________
conv2d_18 (Conv2D)           (None, 8, 8, 10)          1930
_________________________________________________________________
global_average_pooling2d_2 ( (None, 10)                0
_________________________________________________________________
activation_2 (Activation)    (None, 10)                0
=================================================================
Total params: 1,369,738
Trainable params: 1,369,738
Non-trainable params: 0
_________________________________________________________________
Train on 40000 samples, validate on 10000 samples
Epoch 1/20
40000/40000 [==============================] - 944s - loss: 2.3040 - acc: 0.0997 - val_loss: 2.3026 - val_acc: 0.1014
Epoch 2/20
40000/40000 [==============================] - 939s - loss: 2.3026 - acc: 0.0997 - val_loss: 2.3026 - val_acc: 0.1014
…
40000/40000 [==============================] - 950s - loss: 2.3026 - acc: 0.0997 - val_loss: 2.3026 - val_acc: 0.1014
Epoch 19/20
40000/40000 [==============================] - 953s - loss: 2.3026 - acc: 0.0997 - val_loss: 2.3026 - val_acc: 0.1014
Epoch 20/20
40000/40000 [==============================] - 934s - loss: 2.3026 - acc: 0.0997 - val_loss: 2.3026 - val_acc: 0.1014
0.0001
1.0
_________________________________________________________________
Layer (type)                 Output Shape              Param #
=================================================================
input_1 (InputLayer)         (None, 32, 32, 3)         0
_________________________________________________________________
conv2d_19 (Conv2D)           (None, 28, 28, 32)        2432
_________________________________________________________________
conv2d_20 (Conv2D)           (None, 28, 28, 32)        1056
_________________________________________________________________
conv2d_21 (Conv2D)           (None, 28, 28, 32)        1056
_________________________________________________________________
max_pooling2d_3 (MaxPooling2 (None, 14, 14, 32)        0
_________________________________________________________________
dropout_1 (Dropout)          (None, 14, 14, 32)        0
_________________________________________________________________
conv2d_22 (Conv2D)           (None, 12, 12, 64)        18496
_________________________________________________________________
conv2d_23 (Conv2D)           (None, 12, 12, 64)        4160
_________________________________________________________________
conv2d_24 (Conv2D)           (None, 12, 12, 64)        4160
_________________________________________________________________
max_pooling2d_4 (MaxPooling2 (None, 6, 6, 64)          0
_________________________________________________________________
dropout_2 (Dropout)          (None, 6, 6, 64)          0
_________________________________________________________________
conv2d_25 (Conv2D)           (None, 4, 4, 128)         73856
_________________________________________________________________
conv2d_26 (Conv2D)           (None, 4, 4, 32)          4128
_________________________________________________________________
conv2d_27 (Conv2D)           (None, 4, 4, 10)          330
_________________________________________________________________
global_average_pooling2d_3 ( (None, 10)                0
_________________________________________________________________
activation_3 (Activation)    (None, 10)                0
=================================================================
Total params: 109,674
Trainable params: 109,674
Non-trainable params: 0
_________________________________________________________________
Train on 40000 samples, validate on 10000 samples
Epoch 1/20
40000/40000 [==============================] - 74s - loss: 2.1146 - acc: 0.2265 - val_loss: 1.7438 - val_acc: 0.3420
Epoch 2/20
40000/40000 [==============================] - 72s - loss: 1.6615 - acc: 0.3856 - val_loss: 1.5234 - val_acc: 0.4437
…
40000/40000 [==============================] - 73s - loss: 1.0462 - acc: 0.6315 - val_loss: 1.0420 - val_acc: 0.6300
Epoch 19/20
40000/40000 [==============================] - 73s - loss: 1.0352 - acc: 0.6333 - val_loss: 0.9928 - val_acc: 0.6533
Epoch 20/20
40000/40000 [==============================] - 72s - loss: 1.0231 - acc: 0.6381 - val_loss: 1.0156 - val_acc: 0.6435
0.0001
9.1362
____________________________________________________________________________________________________
Layer (type)                     Output Shape          Param #     Connected to
====================================================================================================
input_1 (InputLayer)             (None, 32, 32, 3)     0
____________________________________________________________________________________________________
conv2d_19 (Conv2D)               (None, 28, 28, 32)    2432        input_1[0][0]
____________________________________________________________________________________________________
conv2d_20 (Conv2D)               (None, 28, 28, 32)    1056        conv2d_19[0][0]
____________________________________________________________________________________________________
conv2d_1 (Conv2D)                (None, 32, 32, 96)    2688        input_1[0][0]
____________________________________________________________________________________________________
conv2d_21 (Conv2D)               (None, 28, 28, 32)    1056        conv2d_20[0][0]
____________________________________________________________________________________________________
conv2d_2 (Conv2D)                (None, 32, 32, 96)    83040       conv2d_1[0][0]
____________________________________________________________________________________________________
max_pooling2d_3 (MaxPooling2D)   (None, 14, 14, 32)    0           conv2d_21[0][0]
____________________________________________________________________________________________________
conv2d_3 (Conv2D)                (None, 32, 32, 96)    83040       conv2d_2[0][0]
____________________________________________________________________________________________________
conv2d_10 (Conv2D)               (None, 32, 32, 96)    2688        input_1[0][0]
____________________________________________________________________________________________________
dropout_1 (Dropout)              (None, 14, 14, 32)    0           max_pooling2d_3[0][0]
____________________________________________________________________________________________________
max_pooling2d_1 (MaxPooling2D)   (None, 15, 15, 96)    0           conv2d_3[0][0]
____________________________________________________________________________________________________
conv2d_11 (Conv2D)               (None, 32, 32, 96)    83040       conv2d_10[0][0]
____________________________________________________________________________________________________
conv2d_22 (Conv2D)               (None, 12, 12, 64)    18496       dropout_1[0][0]
____________________________________________________________________________________________________
conv2d_4 (Conv2D)                (None, 15, 15, 192)   166080      max_pooling2d_1[0][0]
____________________________________________________________________________________________________
conv2d_12 (Conv2D)               (None, 16, 16, 96)    83040       conv2d_11[0][0]
____________________________________________________________________________________________________
conv2d_23 (Conv2D)               (None, 12, 12, 64)    4160        conv2d_22[0][0]
____________________________________________________________________________________________________
conv2d_5 (Conv2D)                (None, 15, 15, 192)   331968      conv2d_4[0][0]
____________________________________________________________________________________________________
conv2d_13 (Conv2D)               (None, 16, 16, 192)   166080      conv2d_12[0][0]
____________________________________________________________________________________________________
conv2d_24 (Conv2D)               (None, 12, 12, 64)    4160        conv2d_23[0][0]
____________________________________________________________________________________________________
conv2d_6 (Conv2D)                (None, 15, 15, 192)   331968      conv2d_5[0][0]
____________________________________________________________________________________________________
conv2d_14 (Conv2D)               (None, 16, 16, 192)   331968      conv2d_13[0][0]
____________________________________________________________________________________________________
max_pooling2d_4 (MaxPooling2D)   (None, 6, 6, 64)      0           conv2d_24[0][0]
____________________________________________________________________________________________________
max_pooling2d_2 (MaxPooling2D)   (None, 7, 7, 192)     0           conv2d_6[0][0]
____________________________________________________________________________________________________
conv2d_15 (Conv2D)               (None, 8, 8, 192)     331968      conv2d_14[0][0]
____________________________________________________________________________________________________
dropout_2 (Dropout)              (None, 6, 6, 64)      0           max_pooling2d_4[0][0]
____________________________________________________________________________________________________
conv2d_7 (Conv2D)                (None, 7, 7, 192)     331968      max_pooling2d_2[0][0]
____________________________________________________________________________________________________
conv2d_16 (Conv2D)               (None, 8, 8, 192)     331968      conv2d_15[0][0]
____________________________________________________________________________________________________
conv2d_25 (Conv2D)               (None, 4, 4, 128)     73856       dropout_2[0][0]
____________________________________________________________________________________________________
conv2d_8 (Conv2D)                (None, 7, 7, 192)     37056       conv2d_7[0][0]
____________________________________________________________________________________________________
conv2d_17 (Conv2D)               (None, 8, 8, 192)     37056       conv2d_16[0][0]
____________________________________________________________________________________________________
conv2d_26 (Conv2D)               (None, 4, 4, 32)      4128        conv2d_25[0][0]
____________________________________________________________________________________________________
conv2d_9 (Conv2D)                (None, 7, 7, 10)      1930        conv2d_8[0][0]
____________________________________________________________________________________________________
conv2d_18 (Conv2D)               (None, 8, 8, 10)      1930        conv2d_17[0][0]
____________________________________________________________________________________________________
conv2d_27 (Conv2D)               (None, 4, 4, 10)      330         conv2d_26[0][0]
____________________________________________________________________________________________________
global_average_pooling2d_1 (Glob (None, 10)            0           conv2d_9[0][0]
____________________________________________________________________________________________________
global_average_pooling2d_2 (Glob (None, 10)            0           conv2d_18[0][0]
____________________________________________________________________________________________________
global_average_pooling2d_3 (Glob (None, 10)            0           conv2d_27[0][0]
____________________________________________________________________________________________________
activation_1 (Activation)        (None, 10)            0           global_average_pooling2d_1[0][0]
____________________________________________________________________________________________________
activation_2 (Activation)        (None, 10)            0           global_average_pooling2d_2[0][0]
____________________________________________________________________________________________________
activation_3 (Activation)        (None, 10)            0           global_average_pooling2d_3[0][0]
____________________________________________________________________________________________________
average_1 (Average)              (None, 10)            0           activation_1[0][0]
                                                                   activation_2[0][0]
                                                                   activation_3[0][0]
====================================================================================================
Total params: 2,849,150
Trainable params: 2,849,150
Non-trainable params: 0
____________________________________________________________________________________________________
…
